…
          "base_uri": "https://localhost:8080/"
        },
        "id": "t2fmtQTBXBZw",
        "outputId": "63e19253-070c-462c-f5de-48a3b4d2638d"
      },
      "execution_count": 434,
      "outputs": [
        {
          "output_type": "stream",
          "name": "stdout",
          "text": [
            "Model: \"sequential_8\"\n",
            "_________________________________________________________________\n",
            " Layer (type)                Output Shape              Param #   \n",
            "=================================================================\n",
            " lstm_24 (LSTM)              (None, 24, 128)           69120     \n",
            "                                                                 \n",
            " leaky_re_lu_16 (LeakyReLU)  (None, 24, 128)           0         \n",
            "                                                                 \n",
            " lstm_25 (LSTM)              (None, 24, 128)           131584    \n",
            "                                                                 \n",
            " leaky_re_lu_17 (LeakyReLU)  (None, 24, 128)           0         \n",
            "                                                                 \n",
            " dropout_16 (Dropout)        (None, 24, 128)           0         \n",
            "                                                                 \n",
            " lstm_26 (LSTM)              (None, 64)                49408     \n",
            "                                                                 \n",
            " dropout_17 (Dropout)        (None, 64)                0         \n",
            "                                                                 \n",
            " dense_8 (Dense)             (None, 1)                 65        \n",
            "                                                                 \n",
            "=================================================================\n",
            "Total params: 250,177\n",
            "Trainable params: 250,177\n",
            "Non-trainable params: 0\n",
            "_________________________________________________________________\n"
          ]
        }
…
